…
164/164 - 2s - loss: 0.0303 - accuracy: 0.9576 - precision: 0.9929 - recall: 0.8586 - auc: 0.9278 - micro_avg: 0.9209 - macro_avg: 0.9184 - weighted_avg: 0.9193 - val_loss: 0.2150 - val_accuracy: 0.8535 - val_precision: 0.9085 - val_recall: 0.7277 - val_auc: 0.8455 - val_micro_avg: 0.8081 - val_macro_avg: 0.8026 - val_weighted_avg: 0.8054 - 2s/epoch - 10ms/step



Model: "sequential"
_________________________________________________________________
 Layer (type)                Output Shape              Param #   
=================================================================
 conv2d (Conv2D)             (None, 8, 2, 16)          208       
                                                                 
 conv2d_1 (Conv2D)           (None, 6, 1, 6)           582       
                                                                 
 max_pooling2d (MaxPooling2  (None, 2, 1, 6)           0         
 D)                                                              
                                                                 
 flatten (Flatten)           (None, 12)                0         
                                                                 
 dense (Dense)               (None, 384)               4992      
                                                                 
 dropout (Dropout)           (None, 384)               0         
                                                                 
 dense_1 (Dense)             (None, 3)                 1155      
                                                                 
=================================================================
Total params: 6937 (27.10 KB)
Trainable params: 6937 (27.10 KB)
Non-trainable params: 0 (0.00 Byte)
_________________________________________________________________




 1/21 [>.............................] - ETA: 1s - loss: 0.4580 - accuracy: 0.8125 - precis
…
116/116 - 1s - loss: 0.0151 - accuracy: 0.9811 - precision_1: 0.9994 - recall_1: 0.9025 - auc_1: 0.9512 - micro_avg: 0.9485 - macro_avg: 0.9354 - weighted_avg: 0.9478 - val_loss: 0.1674 - val_accuracy: 0.9139 - val_precision_1: 0.9639 - val_recall_1: 0.8279 - val_auc_1: 0.9101 - val_micro_avg: 0.8907 - val_macro_avg: 0.8217 - val_weighted_avg: 0.8842 - 1s/epoch - 11ms/step



Model: "sequential_1"
_________________________________________________________________
 Layer (type)                Output Shape              Param #   
=================================================================
 conv2d_2 (Conv2D)           (None, 8, 2, 16)          208       
                                                                 
 conv2d_3 (Conv2D)           (None, 6, 1, 6)           582       
                                                                 
 max_pooling2d_1 (MaxPoolin  (None, 2, 1, 6)           0         
 g2D)                                                            
                                                                 
 flatten_1 (Flatten)         (None, 12)                0         
                                                                 
 dense_2 (Dense)             (None, 384)               4992      
                                                                 
 dropout_1 (Dropout)         (None, 384)               0         
                                                                 
 dense_3 (Dense)             (None, 5)                 1925      
                                                                 
=================================================================
Total params: 7707 (30.11 KB)
Trainable params: 7707 (30.11 KB)
Non-trainable params: 0 (0.00 Byte)
_________________________________________________________________




 1/15 [=>............................] - ETA: 0s - loss: 0.2097 - accuracy: 0.9375 - precis
…
