…
164/164 - 2s - loss: 0.0116 - accuracy: 0.9859 - precision: 0.9964 - recall: 0.9568 - auc: 0.9776 - micro_avg: 0.9762 - macro_avg: 0.9758 - weighted_avg: 0.9761 - val_loss: 0.3717 - val_accuracy: 0.8620 - val_precision: 0.8864 - val_recall: 0.8193 - val_auc: 0.8834 - val_micro_avg: 0.8515 - val_macro_avg: 0.8475 - val_weighted_avg: 0.8496 - 2s/epoch - 14ms/step



Model: "sequential"
_________________________________________________________________
 Layer (type)                Output Shape              Param #   
=================================================================
 conv2d (Conv2D)             (None, 8, 2, 16)          208       
                                                                 
 conv2d_1 (Conv2D)           (None, 6, 1, 6)           582       
                                                                 
 max_pooling2d (MaxPooling2  (None, 2, 1, 6)           0         
 D)                                                              
                                                                 
 flatten (Flatten)           (None, 12)                0         
                                                                 
 dense (Dense)               (None, 384)               4992      
                                                                 
 dropout (Dropout)           (None, 384)               0         
                                                                 
 dense_1 (Dense)             (None, 3)                 1155      
                                                                 
=================================================================
Total params: 6937 (27.10 KB)
Trainable params: 6937 (27.10 KB)
Non-trainable params: 0 (0.00 Byte)
_________________________________________________________________



 1/21 [>.............................] - ETA: 1s - loss: 0.2497 - accuracy: 0.8750 - precis
…
116/116 - 1s - loss: 0.0018 - accuracy: 0.9984 - precision_1: 1.0000 - recall_1: 0.9682 - auc_1: 0.9841 - micro_avg: 0.9838 - macro_avg: 0.9802 - weighted_avg: 0.9837 - val_loss: 0.2816 - val_accuracy: 0.9277 - val_precision_1: 0.9534 - val_recall_1: 0.8795 - val_auc_1: 0.9344 - val_micro_avg: 0.9150 - val_macro_avg: 0.8449 - val_weighted_avg: 0.9082 - 1s/epoch - 12ms/step



Model: "sequential_1"
_________________________________________________________________
 Layer (type)                Output Shape              Param #   
=================================================================
 conv2d_2 (Conv2D)           (None, 8, 2, 16)          208       
                                                                 
 conv2d_3 (Conv2D)           (None, 6, 1, 6)           582       
                                                                 
 max_pooling2d_1 (MaxPoolin  (None, 2, 1, 6)           0         
 g2D)                                                            
                                                                 
 flatten_1 (Flatten)         (None, 12)                0         
                                                                 
 dense_2 (Dense)             (None, 384)               4992      
                                                                 
 dropout_1 (Dropout)         (None, 384)               0         
                                                                 
 dense_3 (Dense)             (None, 5)                 1925      
                                                                 
=================================================================
Total params: 7707 (30.11 KB)
Trainable params: 7707 (30.11 KB)
Non-trainable params: 0 (0.00 Byte)
_________________________________________________________________



 1/15 [=>............................] - ETA: 0s - loss: 0.9376 - accuracy: 0.8438 - precis
…
