…
205/205 - 3s - loss: 0.0406 - accuracy: 0.9462 - precision: 0.9859 - recall: 0.8316 - auc: 0.9128 - micro_avg: 0.9022 - macro_avg: 0.8986 - weighted_avg: 0.9004 - val_loss: 0.1918 - val_accuracy: 0.8657 - val_precision: 0.9174 - val_recall: 0.7595 - val_auc: 0.8626 - val_micro_avg: 0.8310 - val_macro_avg: 0.8233 - val_weighted_avg: 0.8260 - 3s/epoch - 16ms/step



Model: "sequential"
_________________________________________________________________
 Layer (type)                Output Shape              Param #   
=================================================================
 conv2d (Conv2D)             (None, 8, 2, 16)          208       
                                                                 
 conv2d_1 (Conv2D)           (None, 6, 1, 6)           582       
                                                                 
 max_pooling2d (MaxPooling2  (None, 2, 1, 6)           0         
 D)                                                              
                                                                 
 flatten (Flatten)           (None, 12)                0         
                                                                 
 dense (Dense)               (None, 384)               4992      
                                                                 
 dropout (Dropout)           (None, 384)               0         
                                                                 
 dense_1 (Dense)             (None, 3)                 1155      
                                                                 
=================================================================
Total params: 6937 (27.10 KB)
Trainable params: 6937 (27.10 KB)
Non-trainable params: 0 (0.00 Byte)
_________________________________________________________________



1/8 [==>...........................] - ETA: 1s - loss: 7.6509 - accuracy: 0.0312 - precisio
…
145/145 - 2s - loss: 0.0209 - accuracy: 0.9724 - precision_1: 0.9976 - recall_1: 0.8858 - auc_1: 0.9426 - micro_avg: 0.9384 - macro_avg: 0.9058 - weighted_avg: 0.9361 - val_loss: 0.1244 - val_accuracy: 0.9329 - val_precision_1: 0.9783 - val_recall_1: 0.8537 - val_auc_1: 0.9245 - val_micro_avg: 0.9118 - val_macro_avg: 0.8402 - val_weighted_avg: 0.9045 - 2s/epoch - 15ms/step



Model: "sequential_1"
_________________________________________________________________
 Layer (type)                Output Shape              Param #   
=================================================================
 conv2d_2 (Conv2D)           (None, 8, 2, 16)          208       
                                                                 
 conv2d_3 (Conv2D)           (None, 6, 1, 6)           582       
                                                                 
 max_pooling2d_1 (MaxPoolin  (None, 2, 1, 6)           0         
 g2D)                                                            
                                                                 
 flatten_1 (Flatten)         (None, 12)                0         
                                                                 
 dense_2 (Dense)             (None, 384)               4992      
                                                                 
 dropout_1 (Dropout)         (None, 384)               0         
                                                                 
 dense_3 (Dense)             (None, 5)                 1925      
                                                                 
=================================================================
Total params: 7707 (30.11 KB)
Trainable params: 7707 (30.11 KB)
Non-trainable params: 0 (0.00 Byte)
_________________________________________________________________



1/6 [====>.........................] - ETA: 0s - loss: 10.8542 - accuracy: 0.0000e+00 - pre
…
